…
Processed: <user> nope they did not have it 
Text: @twittera que me muera ? 
Processed: <user> que me muera   
Text: spring break in plain city... it's snowing 
Processed: spring break in plain city   it is snowing 
Data Split done.
Vocabulary Length: 52025
Tokenizer vocab length: 60000
X_train.shape: (1520000, 40)
X_test.shape : (80000, 40)
Embedding Matrix Shape: (60000, 100)
Model: "Sentiment_Model"
_________________________________________________________________
 Layer (type)                Output Shape              Param #   
=================================================================
 embedding (Embedding)       (None, 40, 100)           6000000   
                                                                 
 conv1d (Conv1D)             (None, 38, 64)            19264     
                                                                 
 conv1d_1 (Conv1D)           (None, 36, 32)            6176      
                                                                 
 max_pooling1d (MaxPooling1D  (None, 12, 32)           0         
 )                                                               
                                                                 
 conv1d_2 (Conv1D)           (None, 10, 16)            1552      
                                                                 
 conv1d_3 (Conv1D)           (None, 8, 8)              392       
                                                                 
 global_average_pooling1d (G  (None, 8)                0         
 lobalAveragePooling1D)                                          
                                                                 
 dense (Dense)               (None, 1)                 9         
                                                                 
=================================================================
Total params: 6,027,393
Trainable params: 27,393
Non-trainable params: 6,000,000
_________________________________________________________________
Epoch 1/10
   1/1336 [..............................] - ETA: 27:02 - loss: 0.6946 - accuracy: 0.5078
…
